weight.npy (npy, 1432 bytes, 1 tensors)

array f8 [163, 1]
00000000: 56d7 f939 c05f 3540 c926 0a7c 0bb6 0c40
00000010: 349a 235d 6541 1240 5397 5ec4 f74d 0140
00000020: 48e5 d0c9 8057 1ac0 be39 7144 bcf1 40c0
00000030: b770 b758 9d1c 4040 1c14 d08d 7df2 0b40
00000040: f792 2b90 8f69 12c0 3db4 ce19 4561 f0bf
00000050: b805 d12d 0865 d9bf 8b60 1e06 605e bbbf
00000060: 8f70 9728 7e7a cc3f 8334 2297 d707 b73f
00000070: 8f78 59f5 92cc c03f 3a76 ffbe 8e1b 963f
00000080: d5c8 1c8c 2791 c3bf 58f1 80bd d13f a73f
00000090: ad51 4e96 06ac e03f 20f3 1b48 e395 c43f
000000a0: ab22 6104 4844 a0bf f9ac 3d60 9f52 8a3f
000000b0: a724 2eb8 aca2 c6bf f803 91bb 3ceb c53f
000000c0: 2a97 e9c0 d5ca c0bf 7f7e d051 ae00 a2bf
000000d0: 0000 cfcd becf b93f 2df4 7374 c714 d63f
000000e0: 8dd0 988b 967c a43f 9aa2 0603 250b 9a3f
000000f0: 0e1c 7d5b 4024 e0bf e96e 58b5 60c6 d73f
00000100: ae46 eeae 5c15 eb3f c9b9 da8c 40fb e9bf
00000110: 9cfe 634f 4e7c b4bf 339d 1ac9 e88c c33f
00000120: 6860 7496 5ef4 d03f 3ffd 1719 ea9d aabf
00000130: b9ee 3c99 9320 d0bf cb51 8c01 e1a7 d83f
00000140: 27d6 e396 db2c c53f 880b 6289 9e0f b4bf
00000150: 2bfe 5c9f 7786 d2bf 86da 55cd 16bc c63f
00000160: 52e8 212f f4a3 d43f b377 d62b e86f ddbf
00000170: b6cd f323 a2d9 a1bf 246e 384c d09d e2bf
00000180: 055e b3e5 8c78 b0bf cff1 de28 8740 e4bf
00000190: 1aca e8af 2e4c b03f 89e1 bbb5 ec49 b53f
000001a0: 9a71 cdd0 777d dcbf 4a43 fdbf f504 cebf
000001b0: 8522 672f 4c92 ef3f 4904 c5fb 89f9 d03f
000001c0: 7591 f447 ec04 a23f 27c1 34e3 7ead d33f
000001d0: 79b5 202f 24b4 babf b241 e354 619e b0bf
000001e0: 3443 eaae 6909 cb3f b54c 8b5d dc1f cfbf
000001f0: f8a3 c876 f7cd c0bf 73b1 a932 8472 f13f
00000200: e5eb e9d9 885f a4bf 8f74 3dce 106d ed3f
00000210: dc2f e4da ff3b eebf 3b0a 7275 e521 e0bf
00000220: c3a9 57e8 fccc e53f 4718 197e e884 f5bf
00000230: dcd8 b37e 1127 d1bf 5fa1 09e5 6a55 a63f
00000240: 23c6 adb4 d056 fe3f e61f 1ff4 42e1 d5bf
00000250: 4681 51bc 7936 c83f f56a d793 adbd 913f
00000260: 56dd ea19 a71f d43f 2c1d 4834 22d0 d5bf
00000270: 564d 1d1b 3f83 df3f eeac 7466 73cc b73f
00000280: 6b47 3445 eadc dcbf f5ad c55a d297 f73f
00000290: b4ed 069b e611 9fbf 4f36 3d1a 54be b33f
000002a0: 52f7 a384 126d e43f 160c a899 9b62 e9bf
000002b0: 96a9 bc53 8840 ec3f 9427 936a 6a84 0940
000002c0: aaec 52d6 e006 17c0 06f5 77da 46b8 f93f
000002d0: 513d 1c2f 7e3a 2b40 160f 3366 2734 c33f
000002e0: 42c9 f923 597e a8bf 9cc6 f5ef 401d b0bf
000002f0: 7997 741c 2539 9dbf e931 fc24 ce4c d3bf
00000300: a4a4 ef91 285f da3f 7f32 7faf 4958 b1bf
00000310: 5d49 c532 2fda b9bf 0335 8a08 e8a0 c5bf
00000320: b85f 4b42 4241 fa3f 8dfb aafd e558 fe3f
00000330: 0f48 a7bc fd42 d93f a103 74f8 68d9 12c0
00000340: ac53 e5cd deb5 1dc0 39cb 6328 91ca 1840
00000350: 0dbd 9366 a351 0c40 6ea5 8deb 9099 eebf
00000360: 6263 d00b 1cb3 f0bf 847b 893e 148b dfbf
00000370: 3a9c 45a3 2336 e43f 6175 4774 1f0d dfbf
00000380: ff80 7e0f a189 d03f ed7b a627 9829 b83f
00000390: c4b8 997e a98d c0bf e3da efaf 2866 d8bf
000003a0: fbb6 407d a6c1 d83f ccab c771 9ade d93f
000003b0: f491 2e33 5209 d83f c0d5 6a6c 547d c73f
000003c0: 0856 aacc 2b84 b4bf a2bb 0646 21da d3bf
000003d0: a636 ff0a 1b5a d9bf e75c 07f3 4670 d73f
000003e0: 53e6 dd72 7bf9 c63f 3277 735a 6420 d4bf
000003f0: a807 833f 0d6a cebf 3b9b 0d50 8e54 a43f
00000400: b599 b5b9 68c3 c13f d574 16c0 5ca9 a3bf
00000410: cb29 82cf f008 acbf 8a09 38b1 dfe0 da3f
00000420: 6311 fcc7 3d8d dc3f ecbe 3bde ba96 dbbf
00000430: 5ad4 f7f0 cc62 b6bf 5ae8 c5df ff28 adbf
00000440: f34b ed25 ad88 b2bf f1ea b44c bfa5 8cbf
00000450: 34f6 4aac 90fb c13f 469b 601b 995a cfbf
00000460: d106 d0c3 bc81 c73f 2eb3 9977 6402 c5bf
00000470: ab31 d9d9 a2f9 b2bf 11f5 739b 42de b8bf
00000480: 1e21 211c 2f5c 943f ed36 82f1 169b dcbf
00000490: e8d6 6c77 37dc d0bf d24d dcd9 0393 c33f
000004a0: 6e94 a373 70b4 b03f 5fed 3757 419e e63f
000004b0: 3fb4 f53c 9ded b83f 8def 36a1 e87b d5bf
000004c0: 61a9 1506 e4ff ccbf 7ad6 294b 1e35 d3bf
000004d0: d605 c771 9aca bf3f b1d2 27f2 cdce da3f
000004e0: fc35 7465 ff1e d0bf e0ea 647b 3586 c0bf
000004f0: 4767 f064 24d7 e1bf faaf ce12 866e b63f
00000500: 0145 a001 b75d d33f 8012 5339 051a dbbf
00000510: 038d c804 e25a df3f
21.37402689313543 3.5888890925024026 4.563863234804149 2.1630702344290653 -6.585452226042726 -33.88855796364395 32.22355183560415 3.4934035376668486
-4.603086712512542 -1.0237475402930294 -0.3967915007998175 -0.10690879964238513 0.22248818380365207 0.08996341171060078 0.13124310474353648 0.02158949890860227
-0.1528672632353564 0.04540877760197998 0.5209992347395677 0.16082421322780593 -0.03177094510517028 0.012852902531184972 -0.17683943741966354 0.17124137075919044
-0.1311900321917901 -0.03516144512854868 0.10082619213699218 0.3450182568774974 0.040013031521454946 0.02543313818901769 -0.5044252192391256 0.371483018012198
0.8463576714149974 -0.811920428377385 -0.08002175749060786 0.15273771113900522 0.2649151295931973 -0.05198604160613706 -0.251988315245153 0.3852465167158498
0.16543145053553696 -0.07836333135678164 -0.28945723116700844 0.17761502290860082 0.32250694849756656 -0.45995525628120076 -0.03486353577491334 -0.5817643631630216
-0.06433945281911953 -0.6328769491442986 0.06366245073949309 0.08315925061095276 -0.44515796080465864 -0.23452636599042825 0.9866085935437502 0.26523065173029586
0.03519380930291308 0.307464334374361 -0.10431123877125072 -0.06491669008688097 0.21122475662971285 -0.24315981452546045 -0.1312856035231389 1.090458104993641
-0.03979137096481348 0.9195636776090782 -0.9448241496297629 -0.5041377347809609 0.681272939485375 -1.3449482846931617 -0.2680095422105191 0.04362043424481742
1.8961951310888103 -0.34187387313840956 0.18916246123536434 0.017325126789596152 0.31443192988395674 -0.34082846742281236 0.4923856510915433 0.09296342135774058
-0.4509835887739572 1.4745658441341878 -0.030341723644353016 0.07712293282130499 0.6383144941935177 -0.7932870865919337 0.882877505825763 3.189656097999384
-5.756717060862835 1.6074894460610394 13.614243957707602 0.15002911081511944 -0.047838960305755865 -0.06294637545013376 -0.028538303243429184 -0.30156282054738753
0.412058012500504 -0.06775341543761647 -0.10098547925489272 -0.1689729730318633 1.6409323300958771 1.8967037114050271 0.3947138159102232 -4.712314493256515
-7.427607743379593 6.197819357958729 3.539862443336125 -0.9562458611155031 -1.0437279187665003 -0.49286371333249 0.6316087902931777 -0.48517595630058535
0.25840021622754245 0.09438467948937986 -0.1293231838384995 -0.3812352865347021 0.38681947929113364 0.40421162711453174 0.3755689143966088 0.18351226133169796
-0.08014177080834639 -0.31018859709268487 -0.3961246116058227 0.3662278531387088 0.1794885931847597 -0.3144770510970033 -0.23761144257701727 0.03970761038981726
0.13877591197815567 -0.038401506851394686 -0.05475571187078606 0.4199752073910977 0.4461206868147853 -0.43107482626417837 -0.08744507678041327 -0.0569534264240736
-0.07239801574660003 -0.013988012817767155 0.14048965847716632 -0.2449523338011323 0.1836467701069098 -0.1641355117784768 -0.07412164515080259 -0.09714142127264248
0.01988290414036086 -0.4469659193499485 -0.2634409586201927 0.1529240430614736 0.06525328467576383 0.7068182662473353 0.09737570513034742 -0.33568778747189115
-0.2265591649732626 -0.30011708584002117 0.12418523099679332 0.41887234352115416 -0.25189194591152364 -0.12909573102100236 -0.5575124713388754 0.08762395819820759
0.3025949016456054 -0.4234631595429974 0.4899220511162669
